…
constructed loss (masking labels with value -1.0) using following loss weights:
alarm: 7.18
baby: 11.78
femaleSpeech: 12.42
fire: 3.86
crash: 12.01
dog: 27.31
engine: 3.92
footsteps: 7.83
knock: 36.65
phone: 20.44
piano: 9.43
maleSpeech: 11.00
femaleScreammaleScream: 14.72
model was constructed!
the model has the following architecture: 
__________________________________________________________________________________________________
Layer (type)                    Output Shape         Param #     Connected to                     
==================================================================================================
input (InputLayer)              (None, 2500, 160)    0                                            
__________________________________________________________________________________________________
reslayer1_conv1d_1 (Conv1D)     (None, 2500, 119)    57239       input[0][0]                      
__________________________________________________________________________________________________
reslayer1_relu_1 (Activation)   (None, 2500, 119)    0           reslayer1_conv1d_1[0][0]         
__________________________________________________________________________________________________
reslayer1_dropout (SpatialDropo (None, 2500, 119)    0           reslayer1_relu_1[0][0]           
__________________________________________________________________________________________________
reslayer1_conv1d_2 (Conv1D)     (None, 2500, 119)    42602       reslayer1_dropout[0][0]          
__________________________________________________________________________________________________
reslayer1_relu_2 (Activation)   (None, 2500, 119)    0           reslayer1_conv1d_2[0][0]         
__________________________________________________________________________________________________
reslayer1_1x1conv (Conv1D)      (None, 2500, 119)    19159       input[0][0]                      
__________________________________________________________________________________________________
reslayer1_output (Add)          (None, 2500, 119)    0           reslayer1_relu_2[0][0]           
                                                                 reslayer1_1x1conv[0][0]          
__________________________________________________________________________________________________
reslayer2_conv1d_1 (Conv1D)     (None, 2500, 119)    42602       reslayer1_output[0][0]           
__________________________________________________________________________________________________
reslayer2_relu_1 (Activation)   (None, 2500, 119)    0           reslayer2_conv1d_1[0][0]         
__________________________________________________________________________________________________
reslayer2_dropout (SpatialDropo (None, 2500, 119)    0           reslayer2_relu_1[0][0]           
__________________________________________________________________________________________________
reslayer2_conv1d_2 (Conv1D)     (None, 2500, 119)    42602       reslayer2_dropout[0][0]          
__________________________________________________________________________________________________
reslayer2_relu_2 (Activation)   (None, 2500, 119)    0           reslayer2_conv1d_2[0][0]         
__________________________________________________________________________________________________
reslayer2_output (Add)          (None, 2500, 119)    0           reslayer2_relu_2[0][0]           
                                                                 reslayer1_output[0][0]           
__________________________________________________________________________________________________
reslayer3_conv1d_1 (Conv1D)     (None, 2500, 119)    42602       reslayer2_output[0][0]           
__________________________________________________________________________________________________
reslayer3_relu_1 (Activation)   (None, 2500, 119)    0           reslayer3_conv1d_1[0][0]         
__________________________________________________________________________________________________
reslayer3_dropout (SpatialDropo (None, 2500, 119)    0           reslayer3_relu_1[0][0]           
__________________________________________________________________________________________________
reslayer3_conv1d_2 (Conv1D)     (None, 2500, 119)    42602       reslayer3_dropout[0][0]          
__________________________________________________________________________________________________
reslayer3_relu_2 (Activation)   (None, 2500, 119)    0           reslayer3_conv1d_2[0][0]         
__________________________________________________________________________________________________
reslayer3_output (Add)          (None, 2500, 119)    0           reslayer3_relu_2[0][0]           
                                                                 reslayer2_output[0][0]           
__________________________________________________________________________________________________
reslayer4_conv1d_1 (Conv1D)     (None, 2500, 119)    42602       reslayer3_output[0][0]           
__________________________________________________________________________________________________
reslayer4_relu_1 (Activation)   (None, 2500, 119)    0           reslayer4_conv1d_1[0][0]         
__________________________________________________________________________________________________
reslayer4_dropout (SpatialDropo (None, 2500, 119)    0           reslayer4_relu_1[0][0]           
__________________________________________________________________________________________________
reslayer4_conv1d_2 (Conv1D)     (None, 2500, 119)    42602       reslayer4_dropout[0][0]          
__________________________________________________________________________________________________
reslayer4_relu_2 (Activation)   (None, 2500, 119)    0           reslayer4_conv1d_2[0][0]         
__________________________________________________________________________________________________
reslayer4_output (Add)          (None, 2500, 119)    0           reslayer4_relu_2[0][0]           
                                                                 reslayer3_output[0][0]           
__________________________________________________________________________________________________
reslayer5_conv1d_1 (Conv1D)     (None, 2500, 119)    42602       reslayer4_output[0][0]           
__________________________________________________________________________________________________
reslayer5_relu_1 (Activation)   (None, 2500, 119)    0           reslayer5_conv1d_1[0][0]         
__________________________________________________________________________________________________
reslayer5_dropout (SpatialDropo (None, 2500, 119)    0           reslayer5_relu_1[0][0]           
__________________________________________________________________________________________________
reslayer5_conv1d_2 (Conv1D)     (None, 2500, 119)    42602       reslayer5_dropout[0][0]          
__________________________________________________________________________________________________
reslayer5_relu_2 (Activation)   (None, 2500, 119)    0           reslayer5_conv1d_2[0][0]         
__________________________________________________________________________________________________
reslayer5_output (Add)          (None, 2500, 119)    0           reslayer5_relu_2[0][0]           
                                                                 reslayer4_output[0][0]           
__________________________________________________________________________________________________
reslayer6_conv1d_1 (Conv1D)     (None, 2500, 119)    42602       reslayer5_output[0][0]           
__________________________________________________________________________________________________
reslayer6_relu_1 (Activation)   (None, 2500, 119)    0           reslayer6_conv1d_1[0][0]         
__________________________________________________________________________________________________
reslayer6_dropout (SpatialDropo (None, 2500, 119)    0           reslayer6_relu_1[0][0]           
__________________________________________________________________________________________________
reslayer6_conv1d_2 (Conv1D)     (None, 2500, 119)    42602       reslayer6_dropout[0][0]          
__________________________________________________________________________________________________
reslayer6_relu_2 (Activation)   (None, 2500, 119)    0           reslayer6_conv1d_2[0][0]         
__________________________________________________________________________________________________
reslayer6_output (Add)          (None, 2500, 119)    0           reslayer6_relu_2[0][0]           
                                                                 reslayer5_output[0][0]           
__________________________________________________________________________________________________
output_dense (Dense)            (None, 2500, 13)     1560        reslayer6_output[0][0]           
==================================================================================================
Total params: 546,580
Trainable params: 546,580
Non-trainable params: 0
__________________________________________________________________________________________________
we extracted as no of neural weights 546580, i.e., 2.186 MB (32 bit floats)

STARTING TRAINING
…
