…
constructed loss (masking labels with value -1.0) using following loss weights:
alarm: 7.41
baby: 13.19
femaleSpeech: 13.38
fire: 3.90
crash: 12.68
dog: 23.81
engine: 3.96
footsteps: 7.61
knock: 43.49
phone: 25.81
piano: 9.69
maleSpeech: 12.17
femaleScreammaleScream: 16.81
model was constructed!
the model has the following architecture: 
__________________________________________________________________________________________________
Layer (type)                    Output Shape         Param #     Connected to                     
==================================================================================================
input (InputLayer)              (None, 2500, 160)    0                                            
__________________________________________________________________________________________________
reslayer1_conv1d_1 (Conv1D)     (None, 2500, 119)    57239       input[0][0]                      
__________________________________________________________________________________________________
reslayer1_relu_1 (Activation)   (None, 2500, 119)    0           reslayer1_conv1d_1[0][0]         
__________________________________________________________________________________________________
reslayer1_dropout (SpatialDropo (None, 2500, 119)    0           reslayer1_relu_1[0][0]           
__________________________________________________________________________________________________
reslayer1_conv1d_2 (Conv1D)     (None, 2500, 119)    42602       reslayer1_dropout[0][0]          
__________________________________________________________________________________________________
reslayer1_relu_2 (Activation)   (None, 2500, 119)    0           reslayer1_conv1d_2[0][0]         
__________________________________________________________________________________________________
reslayer1_1x1conv (Conv1D)      (None, 2500, 119)    19159       input[0][0]                      
__________________________________________________________________________________________________
reslayer1_output (Add)          (None, 2500, 119)    0           reslayer1_relu_2[0][0]           
                                                                 reslayer1_1x1conv[0][0]          
__________________________________________________________________________________________________
reslayer2_conv1d_1 (Conv1D)     (None, 2500, 119)    42602       reslayer1_output[0][0]           
__________________________________________________________________________________________________
reslayer2_relu_1 (Activation)   (None, 2500, 119)    0           reslayer2_conv1d_1[0][0]         
__________________________________________________________________________________________________
reslayer2_dropout (SpatialDropo (None, 2500, 119)    0           reslayer2_relu_1[0][0]           
__________________________________________________________________________________________________
reslayer2_conv1d_2 (Conv1D)     (None, 2500, 119)    42602       reslayer2_dropout[0][0]          
__________________________________________________________________________________________________
reslayer2_relu_2 (Activation)   (None, 2500, 119)    0           reslayer2_conv1d_2[0][0]         
__________________________________________________________________________________________________
reslayer2_output (Add)          (None, 2500, 119)    0           reslayer2_relu_2[0][0]           
                                                                 reslayer1_output[0][0]           
__________________________________________________________________________________________________
output_dense (Dense)            (None, 2500, 13)     1560        reslayer2_output[0][0]           
==================================================================================================
Total params: 205,764
Trainable params: 205,764
Non-trainable params: 0
__________________________________________________________________________________________________
we extracted as no of neural weights 205764, i.e., 0.823 MB (32 bit floats)

STARTING TRAINING
…
