…
constructed loss (masking labels with value -1.0) using following loss weights:
alarm: 7.41
baby: 13.19
femaleSpeech: 13.38
fire: 3.90
crash: 12.68
dog: 23.81
engine: 3.96
footsteps: 7.61
knock: 43.49
phone: 25.81
piano: 9.69
maleSpeech: 12.17
femaleScreammaleScream: 16.81
model was constructed!
the model has the following architecture: 
__________________________________________________________________________________________________
Layer (type)                    Output Shape         Param #     Connected to                     
==================================================================================================
input (InputLayer)              (None, 2500, 160)    0                                            
__________________________________________________________________________________________________
reslayer1_conv1d_1 (Conv1D)     (None, 2500, 119)    57239       input[0][0]                      
__________________________________________________________________________________________________
reslayer1_relu_1 (Activation)   (None, 2500, 119)    0           reslayer1_conv1d_1[0][0]         
__________________________________________________________________________________________________
reslayer1_dropout (SpatialDropo (None, 2500, 119)    0           reslayer1_relu_1[0][0]           
__________________________________________________________________________________________________
reslayer1_conv1d_2 (Conv1D)     (None, 2500, 119)    42602       reslayer1_dropout[0][0]          
__________________________________________________________________________________________________
reslayer1_relu_2 (Activation)   (None, 2500, 119)    0           reslayer1_conv1d_2[0][0]         
__________________________________________________________________________________________________
reslayer1_1x1conv (Conv1D)      (None, 2500, 119)    19159       input[0][0]                      
__________________________________________________________________________________________________
reslayer1_output (Add)          (None, 2500, 119)    0           reslayer1_relu_2[0][0]           
                                                                 reslayer1_1x1conv[0][0]          
__________________________________________________________________________________________________
reslayer2_conv1d_1 (Conv1D)     (None, 2500, 119)    42602       reslayer1_output[0][0]           
__________________________________________________________________________________________________
reslayer2_relu_1 (Activation)   (None, 2500, 119)    0           reslayer2_conv1d_1[0][0]         
__________________________________________________________________________________________________
reslayer2_dropout (SpatialDropo (None, 2500, 119)    0           reslayer2_relu_1[0][0]           
__________________________________________________________________________________________________
reslayer2_conv1d_2 (Conv1D)     (None, 2500, 119)    42602       reslayer2_dropout[0][0]          
__________________________________________________________________________________________________
reslayer2_relu_2 (Activation)   (None, 2500, 119)    0           reslayer2_conv1d_2[0][0]         
__________________________________________________________________________________________________
reslayer2_output (Add)          (None, 2500, 119)    0           reslayer2_relu_2[0][0]           
                                                                 reslayer1_output[0][0]           
__________________________________________________________________________________________________
reslayer3_conv1d_1 (Conv1D)     (None, 2500, 119)    42602       reslayer2_output[0][0]           
__________________________________________________________________________________________________
reslayer3_relu_1 (Activation)   (None, 2500, 119)    0           reslayer3_conv1d_1[0][0]         
__________________________________________________________________________________________________
reslayer3_dropout (SpatialDropo (None, 2500, 119)    0           reslayer3_relu_1[0][0]           
__________________________________________________________________________________________________
reslayer3_conv1d_2 (Conv1D)     (None, 2500, 119)    42602       reslayer3_dropout[0][0]          
__________________________________________________________________________________________________
reslayer3_relu_2 (Activation)   (None, 2500, 119)    0           reslayer3_conv1d_2[0][0]         
__________________________________________________________________________________________________
reslayer3_output (Add)          (None, 2500, 119)    0           reslayer3_relu_2[0][0]           
                                                                 reslayer2_output[0][0]           
__________________________________________________________________________________________________
reslayer4_conv1d_1 (Conv1D)     (None, 2500, 119)    42602       reslayer3_output[0][0]           
__________________________________________________________________________________________________
reslayer4_relu_1 (Activation)   (None, 2500, 119)    0           reslayer4_conv1d_1[0][0]         
__________________________________________________________________________________________________
reslayer4_dropout (SpatialDropo (None, 2500, 119)    0           reslayer4_relu_1[0][0]           
__________________________________________________________________________________________________
reslayer4_conv1d_2 (Conv1D)     (None, 2500, 119)    42602       reslayer4_dropout[0][0]          
__________________________________________________________________________________________________
reslayer4_relu_2 (Activation)   (None, 2500, 119)    0           reslayer4_conv1d_2[0][0]         
__________________________________________________________________________________________________
reslayer4_output (Add)          (None, 2500, 119)    0           reslayer4_relu_2[0][0]           
                                                                 reslayer3_output[0][0]           
__________________________________________________________________________________________________
reslayer5_conv1d_1 (Conv1D)     (None, 2500, 119)    42602       reslayer4_output[0][0]           
__________________________________________________________________________________________________
reslayer5_relu_1 (Activation)   (None, 2500, 119)    0           reslayer5_conv1d_1[0][0]         
__________________________________________________________________________________________________
reslayer5_dropout (SpatialDropo (None, 2500, 119)    0           reslayer5_relu_1[0][0]           
__________________________________________________________________________________________________
reslayer5_conv1d_2 (Conv1D)     (None, 2500, 119)    42602       reslayer5_dropout[0][0]          
__________________________________________________________________________________________________
reslayer5_relu_2 (Activation)   (None, 2500, 119)    0           reslayer5_conv1d_2[0][0]         
__________________________________________________________________________________________________
reslayer5_output (Add)          (None, 2500, 119)    0           reslayer5_relu_2[0][0]           
                                                                 reslayer4_output[0][0]           
__________________________________________________________________________________________________
reslayer6_conv1d_1 (Conv1D)     (None, 2500, 119)    42602       reslayer5_output[0][0]           
__________________________________________________________________________________________________
reslayer6_relu_1 (Activation)   (None, 2500, 119)    0           reslayer6_conv1d_1[0][0]         
__________________________________________________________________________________________________
reslayer6_dropout (SpatialDropo (None, 2500, 119)    0           reslayer6_relu_1[0][0]           
__________________________________________________________________________________________________
reslayer6_conv1d_2 (Conv1D)     (None, 2500, 119)    42602       reslayer6_dropout[0][0]          
__________________________________________________________________________________________________
reslayer6_relu_2 (Activation)   (None, 2500, 119)    0           reslayer6_conv1d_2[0][0]         
__________________________________________________________________________________________________
reslayer6_output (Add)          (None, 2500, 119)    0           reslayer6_relu_2[0][0]           
                                                                 reslayer5_output[0][0]           
__________________________________________________________________________________________________
reslayer7_conv1d_1 (Conv1D)     (None, 2500, 119)    42602       reslayer6_output[0][0]           
__________________________________________________________________________________________________
reslayer7_relu_1 (Activation)   (None, 2500, 119)    0           reslayer7_conv1d_1[0][0]         
__________________________________________________________________________________________________
reslayer7_dropout (SpatialDropo (None, 2500, 119)    0           reslayer7_relu_1[0][0]           
__________________________________________________________________________________________________
reslayer7_conv1d_2 (Conv1D)     (None, 2500, 119)    42602       reslayer7_dropout[0][0]          
__________________________________________________________________________________________________
reslayer7_relu_2 (Activation)   (None, 2500, 119)    0           reslayer7_conv1d_2[0][0]         
__________________________________________________________________________________________________
reslayer7_output (Add)          (None, 2500, 119)    0           reslayer7_relu_2[0][0]           
                                                                 reslayer6_output[0][0]           
__________________________________________________________________________________________________
reslayer8_conv1d_1 (Conv1D)     (None, 2500, 119)    42602       reslayer7_output[0][0]           
__________________________________________________________________________________________________
reslayer8_relu_1 (Activation)   (None, 2500, 119)    0           reslayer8_conv1d_1[0][0]         
__________________________________________________________________________________________________
reslayer8_dropout (SpatialDropo (None, 2500, 119)    0           reslayer8_relu_1[0][0]           
__________________________________________________________________________________________________
reslayer8_conv1d_2 (Conv1D)     (None, 2500, 119)    42602       reslayer8_dropout[0][0]          
__________________________________________________________________________________________________
reslayer8_relu_2 (Activation)   (None, 2500, 119)    0           reslayer8_conv1d_2[0][0]         
__________________________________________________________________________________________________
reslayer8_output (Add)          (None, 2500, 119)    0           reslayer8_relu_2[0][0]           
                                                                 reslayer7_output[0][0]           
__________________________________________________________________________________________________
reslayer9_conv1d_1 (Conv1D)     (None, 2500, 119)    42602       reslayer8_output[0][0]           
__________________________________________________________________________________________________
reslayer9_relu_1 (Activation)   (None, 2500, 119)    0           reslayer9_conv1d_1[0][0]         
__________________________________________________________________________________________________
reslayer9_dropout (SpatialDropo (None, 2500, 119)    0           reslayer9_relu_1[0][0]           
__________________________________________________________________________________________________
reslayer9_conv1d_2 (Conv1D)     (None, 2500, 119)    42602       reslayer9_dropout[0][0]          
__________________________________________________________________________________________________
reslayer9_relu_2 (Activation)   (None, 2500, 119)    0           reslayer9_conv1d_2[0][0]         
__________________________________________________________________________________________________
reslayer9_output (Add)          (None, 2500, 119)    0           reslayer9_relu_2[0][0]           
                                                                 reslayer8_output[0][0]           
__________________________________________________________________________________________________
output_dense (Dense)            (None, 2500, 13)     1560        reslayer9_output[0][0]           
==================================================================================================
Total params: 802,192
Trainable params: 802,192
Non-trainable params: 0
__________________________________________________________________________________________________
we extracted as no of neural weights 802192, i.e., 3.209 MB (32 bit floats)

STARTING TRAINING
…
